Resnet34(
  (conv0): Conv1d(1, 48, kernel_size=(80,), stride=(4,))
  (bn0): BatchNorm1d(48, eps=1e-05, momentum=0.1, affine=True, track_running_stats=True)
  (relu): ReLU()
  (pool0): MaxPool1d(kernel_size=4, stride=4, padding=0, dilation=1, ceil_mode=False)
  (stage0): Sequential(
    (0): ResBlock(
      (conv1): Conv1d(48, 48, kernel_size=(3,), stride=(1,), padding=same)
      (conv2): Conv1d(48, 48, kernel_size=(3,), stride=(1,), padding=same)
      (bn1): BatchNorm1d(48, eps=1e-05, momentum=0.1, affine=True, track_running_stats=True)
      (bn2): BatchNorm1d(48, eps=1e-05, momentum=0.1, affine=True, track_running_stats=True)
      (bn3): BatchNorm1d(48, eps=1e-05, momentum=0.1, affine=True, track_running_stats=True)
      (relu): ReLU(inplace=True)
    )
    (1): ResBlock(
      (conv1): Conv1d(48, 48, kernel_size=(3,), stride=(1,), padding=same)
      (conv2): Conv1d(48, 48, kernel_size=(3,), stride=(1,), padding=same)
      (bn1): BatchNorm1d(48, eps=1e-05, momentum=0.1, affine=True, track_running_stats=True)
      (bn2): BatchNorm1d(48, eps=1e-05, momentum=0.1, affine=True, track_running_stats=True)
      (bn3): BatchNorm1d(48, eps=1e-05, momentum=0.1, affine=True, track_running_stats=True)
      (relu): ReLU(inplace=True)
    )
    (2): ResBlock(
      (conv1): Conv1d(48, 48, kernel_size=(3,), stride=(1,), padding=same)
      (conv2): Conv1d(48, 48, kernel_size=(3,), stride=(1,), padding=same)
      (bn1): BatchNorm1d(48, eps=1e-05, momentum=0.1, affine=True, track_running_stats=True)
      (bn2): BatchNorm1d(48, eps=1e-05, momentum=0.1, affine=True, track_running_stats=True)
      (bn3): BatchNorm1d(48, eps=1e-05, momentum=0.1, affine=True, track_running_stats=True)
      (relu): ReLU(inplace=True)
    )
  )
  (stage1): Sequential(
    (0): ResBlock(
      (conv1): Conv1d(48, 96, kernel_size=(3,), stride=(1,), padding=same)
      (conv2): Conv1d(96, 96, kernel_size=(3,), stride=(1,), padding=same)
      (bn1): BatchNorm1d(96, eps=1e-05, momentum=0.1, affine=True, track_running_stats=True)
      (bn2): BatchNorm1d(96, eps=1e-05, momentum=0.1, affine=True, track_running_stats=True)
      (bn3): BatchNorm1d(96, eps=1e-05, momentum=0.1, affine=True, track_running_stats=True)
      (relu): ReLU(inplace=True)
    )
    (1): ResBlock(
      (conv1): Conv1d(96, 96, kernel_size=(3,), stride=(1,), padding=same)
      (conv2): Conv1d(96, 96, kernel_size=(3,), stride=(1,), padding=same)
      (bn1): BatchNorm1d(96, eps=1e-05, momentum=0.1, affine=True, track_running_stats=True)
      (bn2): BatchNorm1d(96, eps=1e-05, momentum=0.1, affine=True, track_running_stats=True)
      (bn3): BatchNorm1d(96, eps=1e-05, momentum=0.1, affine=True, track_running_stats=True)
      (relu): ReLU(inplace=True)
    )
    (2): ResBlock(
      (conv1): Conv1d(96, 96, kernel_size=(3,), stride=(1,), padding=same)
      (conv2): Conv1d(96, 96, kernel_size=(3,), stride=(1,), padding=same)
      (bn1): BatchNorm1d(96, eps=1e-05, momentum=0.1, affine=True, track_running_stats=True)
      (bn2): BatchNorm1d(96, eps=1e-05, momentum=0.1, affine=True, track_running_stats=True)
      (bn3): BatchNorm1d(96, eps=1e-05, momentum=0.1, affine=True, track_running_stats=True)
      (relu): ReLU(inplace=True)
    )
    (3): ResBlock(
      (conv1): Conv1d(96, 96, kernel_size=(3,), stride=(1,), padding=same)
      (conv2): Conv1d(96, 96, kernel_size=(3,), stride=(1,), padding=same)
      (bn1): BatchNorm1d(96, eps=1e-05, momentum=0.1, affine=True, track_running_stats=True)
      (bn2): BatchNorm1d(96, eps=1e-05, momentum=0.1, affine=True, track_running_stats=True)
      (bn3): BatchNorm1d(96, eps=1e-05, momentum=0.1, affine=True, track_running_stats=True)
      (relu): ReLU(inplace=True)
    )
  )
  (stage2): Sequential(
    (0): ResBlock(
      (conv1): Conv1d(96, 192, kernel_size=(3,), stride=(1,), padding=same)
      (conv2): Conv1d(192, 192, kernel_size=(3,), stride=(1,), padding=same)
      (bn1): BatchNorm1d(192, eps=1e-05, momentum=0.1, affine=True, track_running_stats=True)
      (bn2): BatchNorm1d(192, eps=1e-05, momentum=0.1, affine=True, track_running_stats=True)
      (bn3): BatchNorm1d(192, eps=1e-05, momentum=0.1, affine=True, track_running_stats=True)
      (relu): ReLU(inplace=True)
    )
    (1): ResBlock(
      (conv1): Conv1d(192, 192, kernel_size=(3,), stride=(1,), padding=same)
      (conv2): Conv1d(192, 192, kernel_size=(3,), stride=(1,), padding=same)
      (bn1): BatchNorm1d(192, eps=1e-05, momentum=0.1, affine=True, track_running_stats=True)
      (bn2): BatchNorm1d(192, eps=1e-05, momentum=0.1, affine=True, track_running_stats=True)
      (bn3): BatchNorm1d(192, eps=1e-05, momentum=0.1, affine=True, track_running_stats=True)
      (relu): ReLU(inplace=True)
    )
    (2): ResBlock(
      (conv1): Conv1d(192, 192, kernel_size=(3,), stride=(1,), padding=same)
      (conv2): Conv1d(192, 192, kernel_size=(3,), stride=(1,), padding=same)
      (bn1): BatchNorm1d(192, eps=1e-05, momentum=0.1, affine=True, track_running_stats=True)
      (bn2): BatchNorm1d(192, eps=1e-05, momentum=0.1, affine=True, track_running_stats=True)
      (bn3): BatchNorm1d(192, eps=1e-05, momentum=0.1, affine=True, track_running_stats=True)
      (relu): ReLU(inplace=True)
    )
    (3): ResBlock(
      (conv1): Conv1d(192, 192, kernel_size=(3,), stride=(1,), padding=same)
      (conv2): Conv1d(192, 192, kernel_size=(3,), stride=(1,), padding=same)
      (bn1): BatchNorm1d(192, eps=1e-05, momentum=0.1, affine=True, track_running_stats=True)
      (bn2): BatchNorm1d(192, eps=1e-05, momentum=0.1, affine=True, track_running_stats=True)
      (bn3): BatchNorm1d(192, eps=1e-05, momentum=0.1, affine=True, track_running_stats=True)
      (relu): ReLU(inplace=True)
    )
    (4): ResBlock(
      (conv1): Conv1d(192, 192, kernel_size=(3,), stride=(1,), padding=same)
      (conv2): Conv1d(192, 192, kernel_size=(3,), stride=(1,), padding=same)
      (bn1): BatchNorm1d(192, eps=1e-05, momentum=0.1, affine=True, track_running_stats=True)
      (bn2): BatchNorm1d(192, eps=1e-05, momentum=0.1, affine=True, track_running_stats=True)
      (bn3): BatchNorm1d(192, eps=1e-05, momentum=0.1, affine=True, track_running_stats=True)
      (relu): ReLU(inplace=True)
    )
    (5): ResBlock(
      (conv1): Conv1d(192, 192, kernel_size=(3,), stride=(1,), padding=same)
      (conv2): Conv1d(192, 192, kernel_size=(3,), stride=(1,), padding=same)
      (bn1): BatchNorm1d(192, eps=1e-05, momentum=0.1, affine=True, track_running_stats=True)
      (bn2): BatchNorm1d(192, eps=1e-05, momentum=0.1, affine=True, track_running_stats=True)
      (bn3): BatchNorm1d(192, eps=1e-05, momentum=0.1, affine=True, track_running_stats=True)
      (relu): ReLU(inplace=True)
    )
  )
  (stage3): Sequential(
    (0): ResBlock(
      (conv1): Conv1d(192, 384, kernel_size=(3,), stride=(1,), padding=same)
      (conv2): Conv1d(384, 384, kernel_size=(3,), stride=(1,), padding=same)
      (bn1): BatchNorm1d(384, eps=1e-05, momentum=0.1, affine=True, track_running_stats=True)
      (bn2): BatchNorm1d(384, eps=1e-05, momentum=0.1, affine=True, track_running_stats=True)
      (bn3): BatchNorm1d(384, eps=1e-05, momentum=0.1, affine=True, track_running_stats=True)
      (relu): ReLU(inplace=True)
    )
    (1): ResBlock(
      (conv1): Conv1d(384, 384, kernel_size=(3,), stride=(1,), padding=same)
      (conv2): Conv1d(384, 384, kernel_size=(3,), stride=(1,), padding=same)
      (bn1): BatchNorm1d(384, eps=1e-05, momentum=0.1, affine=True, track_running_stats=True)
      (bn2): BatchNorm1d(384, eps=1e-05, momentum=0.1, affine=True, track_running_stats=True)
      (bn3): BatchNorm1d(384, eps=1e-05, momentum=0.1, affine=True, track_running_stats=True)
      (relu): ReLU(inplace=True)
    )
    (2): ResBlock(
      (conv1): Conv1d(384, 384, kernel_size=(3,), stride=(1,), padding=same)
      (conv2): Conv1d(384, 384, kernel_size=(3,), stride=(1,), padding=same)
      (bn1): BatchNorm1d(384, eps=1e-05, momentum=0.1, affine=True, track_running_stats=True)
      (bn2): BatchNorm1d(384, eps=1e-05, momentum=0.1, affine=True, track_running_stats=True)
      (bn3): BatchNorm1d(384, eps=1e-05, momentum=0.1, affine=True, track_running_stats=True)
      (relu): ReLU(inplace=True)
    )
  )
  (pool1): MaxPool1d(kernel_size=4, stride=4, padding=0, dilation=1, ceil_mode=False)
  (pool2): MaxPool1d(kernel_size=4, stride=4, padding=0, dilation=1, ceil_mode=False)
  (pool3): MaxPool1d(kernel_size=4, stride=4, padding=0, dilation=1, ceil_mode=False)
  (avgpool): AvgPool1d(kernel_size=(1,), stride=(1,), padding=(0,))
  (dense1): Linear(in_features=384, out_features=2, bias=True)
  (dense2): Sigmoid()
)
